"backend: tensorflow\nclass_name: Model\nconfig:\n  input_layers:\n  - [input_1, 0,\
  \ 0]\n  layers:\n  - class_name: InputLayer\n    config:\n      batch_input_shape:\
  \ !!python/tuple [null, 28, 28, 1]\n      dtype: float32\n      name: input_1\n\
  \      sparse: false\n    inbound_nodes: []\n    name: input_1\n  - class_name:\
  \ Conv2D\n    config:\n      activation: relu\n      activity_regularizer: null\n\
  \      bias_constraint: null\n      bias_initializer:\n        class_name: Zeros\n\
  \        config: {}\n      bias_regularizer: null\n      data_format: channels_last\n\
  \      dilation_rate: !!python/tuple [1, 1]\n      filters: 64\n      kernel_constraint:\
  \ null\n      kernel_initializer:\n        class_name: VarianceScaling\n       \
  \ config: {distribution: uniform, mode: fan_avg, scale: 1.0, seed: null}\n     \
  \ kernel_regularizer: null\n      kernel_size: !!python/tuple [3, 3]\n      name:\
  \ conv2d_1\n      padding: same\n      strides: !!python/tuple [1, 1]\n      trainable:\
  \ true\n      use_bias: true\n    inbound_nodes:\n    - - - input_1\n        - 0\n\
  \        - 0\n        - {}\n    name: conv2d_1\n  - class_name: MaxPooling2D\n \
  \   config:\n      data_format: channels_last\n      name: max_pooling2d_1\n   \
  \   padding: valid\n      pool_size: &id001 !!python/tuple [2, 2]\n      strides:\
  \ *id001\n      trainable: true\n    inbound_nodes:\n    - - - conv2d_1\n      \
  \  - 0\n        - 0\n        - {}\n    name: max_pooling2d_1\n  - class_name: Flatten\n\
  \    config: {name: flatten_1, trainable: true}\n    inbound_nodes:\n    - - - max_pooling2d_1\n\
  \        - 0\n        - 0\n        - {}\n    name: flatten_1\n  - class_name: Dense\n\
  \    config:\n      activation: relu\n      activity_regularizer: null\n      bias_constraint:\
  \ null\n      bias_initializer:\n        class_name: Zeros\n        config: {}\n\
  \      bias_regularizer: null\n      kernel_constraint: null\n      kernel_initializer:\n\
  \        class_name: VarianceScaling\n        config: {distribution: uniform, mode:\
  \ fan_avg, scale: 1.0, seed: null}\n      kernel_regularizer: null\n      name:\
  \ dense_1\n      trainable: true\n      units: 128\n      use_bias: true\n    inbound_nodes:\n\
  \    - - - flatten_1\n        - 0\n        - 0\n        - {}\n    name: dense_1\n\
  \  - class_name: Dense\n    config:\n      activation: relu\n      activity_regularizer:\
  \ null\n      bias_constraint: null\n      bias_initializer:\n        class_name:\
  \ Zeros\n        config: {}\n      bias_regularizer: null\n      kernel_constraint:\
  \ null\n      kernel_initializer:\n        class_name: VarianceScaling\n       \
  \ config: {distribution: uniform, mode: fan_avg, scale: 1.0, seed: null}\n     \
  \ kernel_regularizer: null\n      name: dense_2\n      trainable: true\n      units:\
  \ 64\n      use_bias: true\n    inbound_nodes:\n    - - - dense_1\n        - 0\n\
  \        - 0\n        - {}\n    name: dense_2\n  - class_name: Dense\n    config:\n\
  \      activation: softmax\n      activity_regularizer: null\n      bias_constraint:\
  \ null\n      bias_initializer:\n        class_name: Zeros\n        config: {}\n\
  \      bias_regularizer: null\n      kernel_constraint: null\n      kernel_initializer:\n\
  \        class_name: VarianceScaling\n        config: {distribution: uniform, mode:\
  \ fan_avg, scale: 1.0, seed: null}\n      kernel_regularizer: null\n      name:\
  \ dense_3\n      trainable: true\n      units: 10\n      use_bias: true\n    inbound_nodes:\n\
  \    - - - dense_2\n        - 0\n        - 0\n        - {}\n    name: dense_3\n\
  \  name: model_1\n  output_layers:\n  - [dense_3, 0, 0]\nkeras_version: 2.1.5\n"
